Using TensorFlow backend.
Found 8784 unique tokens.
Shape of data tensor: (34, 20000)
Shape of label tensor: (34,)
_________________________________________________________________
Layer (type)                 Output Shape              Param #
=================================================================
embedding_1 (Embedding)      (None, 20000, 256)        5120000
_________________________________________________________________
flatten_1 (Flatten)          (None, 5120000)           0
_________________________________________________________________
dense_1 (Dense)              (None, 64)                327680064
_________________________________________________________________
dropout_1 (Dropout)          (None, 64)                0
_________________________________________________________________
dense_2 (Dense)              (None, 16)                1040
_________________________________________________________________
dropout_2 (Dropout)          (None, 16)                0
_________________________________________________________________
dense_3 (Dense)              (None, 8)                 136
_________________________________________________________________
dense_4 (Dense)              (None, 1)                 9
=================================================================
Total params: 332,801,249
Trainable params: 332,801,249
Non-trainable params: 0
_________________________________________________________________
Train on 30 samples, validate on 4 samples
Epoch 1/50
 - 26s - loss: 0.6981 - acc: 0.5333 - val_loss: 0.6970 - val_acc: 0.7500
Epoch 2/50
 - 6s - loss: 2.4526 - acc: 0.4000 - val_loss: 0.7367 - val_acc: 0.7500
…
